model/car_lite_model.pth (torch, 58134 bytes, 38 tensors)

inception_module.convs.0.weight f4 [32, 1, 40]
0	0xbe00967d	-0.12557407
1	0xbd605c78	-0.054775685
2	0xbd860d8a	-0.06545551
3	0x3e00c19b	0.12573855
4	0x3e0c9af2	0.13730982
5	0xbd90f1a9	-0.07077343
6	0x3e06bbf8	0.13157642
7	0xbd40e93c	-0.04709743
8	0xbd804e8c	-0.062649816
9	0xbdbb8d66	-0.09157829
10	0xbdbe4b5c	-0.092917174
11	0x3dd2acf3	0.10286894
12	0xbd9c8963	-0.07643392
13	0xbd84809e	-0.06469844
14	0xbde80d50	-0.11330664
15	0x3d15d422	0.03657926
16	0xbc9d5e92	-0.019210134
17	0xbd6eeb63	-0.05832995
18	0x3d773766	0.060355566
19	0xbd04b1c0	-0.032396078
20	0x3dcc1d93	0.09966578
21	0x3dc4a4f3	0.09601774
22	0x3d4a9262	0.049456008
23	0x3e20f712	0.1571925
24	0xbdf8ca6b	-0.12147983
25	0xbe097dca	-0.13426891
26	0x3c729779	0.014806622
27	0xbdaeaf6e	-0.08529554
28	0xbe5641f0	-0.2092359
29	0x3bc26867	0.005932856
30	0xbd811e4c	-0.06304607
31	0xbd8a83e4	-0.067634374
32	0xbb8e5ef1	-0.004344814
33	0xbe1b08f0	-0.15140128
34	0x3dfaf0a6	0.12252931
35	0xbdddb8e1	-0.108262785
36	0xbbb885f1	-0.0056312014
37	0xbe18401a	-0.14868203
38	0xbdbf9416	-0.09354417
39	0x3dc668ad	0.09687934
40	0x3e06655e	0.13124606
41	0x3e190417	0.14942966
42	0x3e14a113	0.1451457
43	0x3dbaf210	0.09128201
44	0x3db81db3	0.0899004
45	0x3d73a273	0.059481096
46	0x3c30829a	0.010773325
47	0xbdd3bfbb	-0.10339304
48	0x3da87516	0.08225457
49	0xbd935de6	-0.07195644
50	0xbd89586b	-0.067063175
51	0x3d8d5f6f	0.06902968
52	0x3db826c6	0.089917704
53	0xbd4bdae0	-0.049769282
54	0xbdd87424	-0.10569027
55	0x3dc972ba	0.098363355
56	0xbd38b250	-0.045091927
57	0xbd7d8ed5	-0.061903793
58	0x3d320597	0.043462362
59	0xbe3f7ab7	-0.18699156
60	0x3cccc732	0.024997327
61	0xbe2f2b5f	-0.17106389
62	0xbdbbdd05	-0.091730155
63	0x3c13e38b	0.009026418
64	0x3e014b40	0.12626362
65	0x3d8306d3	0.06397786
66	0x3dad0156	0.084475204
67	0x3dcec02d	0.10095248
68	0xbd37eff6	-0.04490658
69	0xbdddefde	-0.10836767
70	0xbdcbb4cb	-0.09946593
71	0xbe07d813	-0.1326602
72	0xbc8ae1ef	-0.016953437
73	0x3d764f51	0.060134236
74	0xbd29b338	-0.041430682
75	0xbdc8e52d	-0.09809337
76	0x3cb851ee	0.022500005
77	0xbe2c2505	-0.16810997
78	0xba64015e	-0.00086977135
79	0xbd5116e5	-0.051047225
80	0xbe3a6b63	-0.18205027
81	0x3d5dac27	0.054119255
82	0x3e10798f	0.14108871
83	0xbd4a8e58	-0.049452156
84	0xbc293449	-0.010327407
85	0x3e0af125	0.13568552
86	0x3cfea630	0.031085104
87	0x3c896905	0.01677371
88	0x3cbd4515	0.02310423
89	0x3d74222e	0.05960291
90	0xbd6bfdd2	-0.05761511
91	0xbe0510fe	-0.12994763
92	0xbdc53577	-0.09629338
93	0xbdb3a7b8	-0.08772224
94	0x3d6d6571	0.05795807
95	0x3cbbe040	0.02293408
96	0xbe133e76	-0.14379296
97	0xbcfc5fc7	-0.030807389
98	0x3cf498cb	0.029858014
99	0xbda2dd0a	-0.07952316
100	0xbd937470	-0.07199943
101	0xbc8bfc03	-0.017087942
102	0xbd120875	-0.035652597
103	0x3e036284	0.1283055
104	0x3e0b368f	0.13595031
105	0x3dc8a3e0	0.09796882
106	0xbde99768	-0.114058316
107	0xbdaccc94	-0.08437458
108	0xbc80cb9d	-0.01572209
109	0x3d399f0e	0.045317702
110	0xbda0b50f	-0.07847034
111	0xbc58fcd5	-0.013243874
112	0xbda5bc99	-0.08092613
113	0x3cc63a8d	0.024197841
114	0x3da24494	0.079232365
115	0x3d42e064	0.047577277
116	0xbd098b00	-0.033579826
117	0x3e258dc0	0.16167355
118	0x3e03c976	0.1286982
119	0x3e6323e0	0.22181654
120	0x3dbc25b4	0.09186879
121	0x3e5cff17	0.21581684
122	0xbd41741a	-0.047229864
123	0x3cb71e1e	0.022353228
124	0x3db50ce9	0.08840353
125	0xbc03937c	-0.0080307685
126	0xbda3d4c2	-0.07999565
127	0x3b39e583	0.002836556
128	0xbdc0501a	-0.09390278
129	0x3c804ada	0.015660692
130	0xbe1a0e5f	-0.15044545
131	0xbe3c2985	-0.18375213
132	0xbde770d8	-0.1130082
133	0xbdf9f0fb	-0.122041665
134	0xbdf20d75	-0.11818973
135	0xbb35487d	-0.0027661615
136	0x3dbcbf3e	0.09216164
137	0x3dad3607	0.084575705
138	0xbd32c162	-0.043641455
139	0x3d8a8f64	0.06765631
140	0x3ca1a191	0.019730361
141	0xbdd94318	-0.106085
142	0xbe062f6c	-0.13104028
143	0xbe19f59d	-0.150351
144	0xbd639918	-0.055565923
145	0x3dee65de	0.116405234
146	0xbd06a62c	-0.032873318
147	0xbe0ab09f	-0.13543938
148	0x3e08361a	0.13301888
149	0xbd713bb7	-0.05889484
150	0x3d8518bb	0.064988576
151	0x3cd38c7e	0.025823828
152	0xbd1be3c4	-0.03805901
153	0xbe024323	-0.12720923
154	0x3bb65823	0.005564706
155	0x3ddb05cd	0.10694466
156	0x3d8e868e	0.06959258
157	0xbdd07522	-0.10178591
158	0x3e0c0690	0.13674378
159	0x3db7d9c7	0.089770846
160	0x3e51817d	0.20459552
161	0xbc52a3d8	-0.012856446
162	0xbbf84d13	-0.0075775473
163	0xbd1494b8	-0.03627464
164	0xbdf8764c	-0.12131938
165	0xbe1bcf14	-0.15215713
166	0xbd6c1e12	-0.057645865
167	0xbcbda7a1	-0.02315122
168	0x3d96b18b	0.073580824
169	0x3c7eba64	0.015547369
170	0xbe1732b2	-0.14765432
171	0x3d8162dd	0.06317685
172	0xbd8d48c4	-0.068986446
173	0xbdd51e08	-0.10406119
174	0x3e04a0e6	0.12952003
175	0xbda58efe	-0.08083914
176	0xbdd2299a	-0.10261841
177	0x3dd9de8a	0.10638149
178	0xbd768685	-0.06018688
179	0xbd85896b	-0.06520351
180	0xbcc5cc04	-0.024145134
181	0x3d986794	0.07441631
182	0xbd3572da	-0.044298984
183	0xbe340c1c	-0.17582744
184	0x3e0d51b6	0.13800701
185	0xbd2b4c3f	-0.04182076
186	0xbd22d135	-0.039750297
187	0x3e3dbbb8	0.1852864
188	0x3db630f9	0.088960595
189	0x3e0275fd	0.12740321
190	0xbc95c35f	-0.018281637
191	0xbcf25f6e	-0.02958652
192	0x3c88fcd2	0.016722117
193	0x3e0add35	0.13560946
194	0xbd5c8c29	-0.053844605
195	0x3cd0952c	0.025461756
196	0x3b977cfc	0.0046230536
197	0xbd075f2b	-0.033049744
198	0xbd97eb55	-0.07417933
199	0xbe74f4e5	-0.23921545
200	0xbd5f6dd6	-0.054548107
201	0xbde74f39	-0.112944074
202	0xbdf5f204	-0.120090514
203	0x3cfe9deb	0.03108116
204	0xbe10bfb0	-0.14135623
205	0xbe302fb4	-0.17205697
206	0xbe6149b2	-0.22000769
207	0xbe0a075f	-0.13479374
208	0x3db512f2	0.08841504
209	0x3c185597	0.00929775
210	0x3cbda8a2	0.0231517
211	0x3da3f9dc	0.08006641
212	0xbc3e5659	-0.011617267
213	0x3db5ae2c	0.08871111
214	0xbd503934	-0.050835803
215	0xbd51161c	-0.051046476
216	0xbd540b42	-0.05176855
217	0xbdad1b04	-0.084524184
218	0xbdbc46be	-0.091931805
219	0xbc637dfc	-0.0138850175
220	0x3e25e52d	0.16200705
221	0x3d520a0e	0.05127912
222	0xbe2bd853	-0.1678174
223	0xbe552158	-0.20813501
224	0xbcdc1840	-0.026867032
225	0xbd1e2d2e	-0.038617305
226	0xbdbd6c79	-0.09249205
227	0x3db90cc7	0.0903564
228	0x3d9d0625	0.076671876
229	0x3dbec8c9	0.093156405
230	0xbdfc4ffe	-0.12319945
231	0xbdebd4f7	-0.11515229
232	0x3dc974d6	0.09836738
233	0x3d2a6bc0	0.041606665
234	0x3e24db58	0.16099298
235	0xbe022647	-0.12709914
236	0x3c9a739f	0.01885396
237	0xbda0b4f8	-0.07847017
238	0xbda9f514	-0.08298698
239	0x3cb4c89d	0.022068316
240	0x3cf7f43c	0.030267827
241	0x3dc63c64	0.09679487
242	0xbd546f12	-0.051863737
243	0x3df66263	0.120304845
244	0x3e1c56aa	0.15267435
245	0x3cc53159	0.024071382
246	0x3dc9f4f0	0.09861171
247	0xbd559ff0	-0.05215448
248	0x3d2ae1b5	0.041719157
249	0x3d9e5581	0.07731152
250	0xbd9a4a35	-0.07533685
251	0xbdba4c20	-0.09096551
252	0xbcf28c09	-0.02960779
253	0xbe00a8b3	-0.12564354
254	0xbd874521	-0.06604982
255	0x397aa120	0.00023901882

inception_module.convs.1.weight f4 [32, 1, 20]
0	0xbe7627a8	-0.24038565
1	0x3d5d31b9	0.054002497
2	0x3e2480bf	0.16064738
3	0x3dc863a5	0.09784631
4	0x3e2bb277	0.16767298
5	0x3d52bf59	0.051452015
6	0x3d6b9130	0.05751151
7	0xbc29d782	-0.0103663225
8	0x3e4e15a5	0.20125444
9	0xbd6cebc2	-0.057842024
10	0xbda802f5	-0.08203689
11	0x3e4eaf4c	0.20184058
12	0xbe1296f3	-0.14315395
13	0x3e034f5b	0.1282324
14	0x3e027a43	0.12741952
15	0xbe0ac59e	-0.13551947
16	0x3d3acdc7	0.0456064
17	0x3e46535f	0.19367741
18	0x3e08eba8	0.13371146
19	0x3dbc94ec	0.09208092
20	0x3e651231	0.2237022
21	0x3ddc2313	0.107488774
22	0x3dabc906	0.083879516
23	0xbe48aaac	-0.19596356
24	0xbe00a405	-0.12562568
25	0xbdca2665	-0.098706044
26	0x3c45f3d0	0.012082055
27	0xbda752dd	-0.08170102
28	0x3df55f7d	0.119811036
29	0x3df054c0	0.11734915
30	0xbe1a01ed	-0.15039797
31	0xbd886368	-0.06659585
32	0xbd804579	-0.06263251
33	0x3cd69718	0.026195094
34	0xbe19ea80	-0.15030861
35	0x3dc17198	0.094454944
36	0xbdfcddea	-0.12347014
37	0x3deb4ff7	0.114898615
38	0xbe04f044	-0.12982279
39	0x3dd65140	0.10464716
40	0xbb80bbe1	-0.003928647
41	0xbc6902c2	-0.014221849
42	0x3e3fc0dc	0.18725914
43	0x3d2df765	0.042472262
44	0x3b7468e3	0.0037293963
45	0x3cfac8d0	0.030613333
46	0xbe43284a	-0.19058338
47	0xbc437761	-0.011930318
48	0xbd02cf3c	-0.031935915
49	0x3d6b1289	0.057390723
50	0x3e829e90	0.255116
51	0x3d2372f3	0.039904546
52	0x3e5965a8	0.21230185
53	0x3e54db6b	0.20786826
54	0xbe18dc3c	-0.14927763
55	0x3d8a0851	0.067398675
56	0x3d1ce269	0.03830186
57	0xbe365bc1	-0.17808439
58	0xbdb14d75	-0.08657352
59	0xbe41a302	-0.18909839
60	0x3e334d2f	0.17509912
61	0x3e1ff556	0.15620932
62	0x3e02d8b6	0.12777981
63	0xbe36e10a	-0.17859283
64	0xbd06510a	-0.03279213
65	0xbc93beee	-0.018035378
66	0xbe1fe441	-0.15614416
67	0xbe1e6f3f	-0.15472125
68	0xbd80e69c	-0.06293985
69	0x3daf6245	0.08563665
70	0xbe87fb37	-0.2655885
71	0x3e32955a	0.17439786
72	0xbd9db318	-0.07700175
73	0x3d952c68	0.072838604
74	0xbdd0008d	-0.10156355
75	0xbd999193	-0.07498469
76	0xbc11c4d2	-0.008897023
77	0xbcf6a3ef	-0.030107467
78	0xbd8828ed	-0.06648431
79	0x3e6a9d78	0.22911632
80	0xbe306611	-0.17226435
81	0xbe31b63d	-0.17354675
82	0xbe42c522	-0.19020513
83	0xbdda44c7	-0.106576495
84	0x3d6f02ff	0.058352467
85	0xbe3d031c	-0.18458217
86	0xbe3ca818	-0.18423498
87	0xbe0fc0a2	-0.14038327
88	0x3db61d48	0.08892304
89	0x3da31cab	0.07964452
90	0xbe455b68	-0.1927315
91	0x3e3bb839	0.18331994
92	0x3e1b5f69	0.15173115
93	0x3e295ad2	0.16538551
94	0x3dd393bc	0.103309125
95	0xbdb064b2	-0.08612956
96	0x3e45a16f	0.19299863
97	0xbc5e0825	-0.0135517465
98	0xbd679367	-0.05653706
99	0x3e68e156	0.22742209
100	0xbdec68a4	-0.11543396
101	0x3e4bc3fc	0.19898981
102	0x3dafa78a	0.085768774
103	0xbd95851f	-0.073007815
104	0xbc2a32fb	-0.010388131
105	0xbd0bb47d	-0.034107674
106	0x3d3950b7	0.04524299
107	0xbd4a98de	-0.04946219
108	0xbb61c0cd	-0.0034447194
109	0xbe46171f	-0.19344757
110	0xbd95d7d4	-0.073165566
111	0xbe24406c	-0.160402
112	0x3c5532c4	0.013012592
113	0xbe9dfd8a	-0.30857497
114	0xbe2a8dcb	-0.16655652
115	0xba7c539a	-0.0009625495
116	0xbe7e71b9	-0.24848069
117	0xbe3a16bf	-0.1817274
118	0xbe28b095	-0.1647361
119	0x3dd36981	0.10322858
120	0x3dc41670	0.09574592
121	0xbd496364	-0.049167052
122	0xbd3c86e2	-0.04602707
123	0x3d1f4a17	0.038889017
124	0xbe0c9858	-0.1372999
125	0xbe2a7a83	-0.16648297
126	0xbd48da00	-0.049036026
127	0x3d888cd7	0.06667488
128	0x3e35e191	0.17761828
129	0xbe525c4d	-0.20543022
130	0xbe40dbf4	-0.18833905
131	0xbe15ad66	-0.14616928
132	0xbdd202e6	-0.10254459
133	0xbe564563	-0.20924906
134	0x3d934016	0.07189958
135	0xbe5887ae	-0.21145508
136	0xbe34ee27	-0.17668973
137	0xbd56368d	-0.052298117
138	0xbd283cdb	-0.04107366
139	0x3d889e39	0.066708036
140	0x3e322538	0.1739701
141	0xbd9a4d20	-0.07534242
142	0xbe1721c8	-0.1475898
143	0x3d12f099	0.035873983
144	0xbe402dae	-0.18767425
145	0xbdd852a3	-0.10562637
146	0xbe19e3a9	-0.15028252
147	0x3d54f941	0.05199552
148	0xbde77367	-0.11301308
149	0xbe431a25	-0.19052942
150	0x3e1a9caf	0.15098833
151	0xbe5cac6f	-0.21550153
152	0xbe5351a2	-0.20636609
153	0x3df25d20	0.118341684
154	0x3c68827f	0.014191269
155	0xbc1b0dda	-0.009463752
156	0x3e26bb78	0.16282451
157	0x3c694929	0.014238634
158	0x3e6a56e7	0.22884713
159	0x3e402624	0.1876455
160	0x3e059cb3	0.13048057
161	0x3e5beedc	0.21477836
162	0x3c79443b	0.015214021
163	0x3e0b4371	0.13599946
164	0xbd07720c	-0.033067748
165	0xbe4a8082	-0.19775584
166	0xbe07cd57	-0.13261925
167	0xbe1807ac	-0.14846677
168	0xbd4b188b	-0.049583953
169	0x3df59b31	0.11992491
170	0xbe211f25	-0.15734537
171	0x3d17de80	0.037077427
172	0x3d86effa	0.06588741
173	0xbdd255e7	-0.10270291
174	0x3d4cfec2	0.050047643
175	0xbdd72977	-0.10505956
176	0xbdcd4aa0	-0.10023999
177	0x3d428633	0.047491264
178	0x3e53d528	0.20686781
179	0xbc60a026	-0.013710057
180	0xbd7613ab	-0.06007735
181	0x3e30d06a	0.17267004
182	0xbd9f1654	-0.077679306
183	0xbe63be5a	-0.22240582
184	0x3db1a0b0	0.08673227
185	0x3dd9fe27	0.10644179
186	0x3de1b639	0.11021084
187	0x3d1d31c0	0.038377523
188	0x3d879a49	0.066212244
189	0xbd9c42f0	-0.07629955
190	0x3d67f010	0.056625426
191	0xbe47f5cd	-0.1952736
192	0xbe75aa33	-0.23990707
193	0xbe5cea76	-0.21573815
194	0xbdab13ab	-0.08353361
195	0xbe0967f9	-0.13418569
196	0x3cd56a83	0.026051765
197	0xbdc7db06	-0.09758572
198	0x3e6c0ecd	0.23052521
199	0x3e084a22	0.1330953
200	0x3d23684c	0.039894387
201	0xbe1620a9	-0.14660896
202	0x3d29dac6	0.041468404
203	0xbe7c7393	-0.24653463
204	0xbe480233	-0.19532089
205	0xbe084166	-0.13306198
206	0xbe7a36ea	-0.2443501
207	0xbd604cea	-0.05476085
208	0x3e30bfd7	0.17260681
209	0xbcc55667	-0.024089051
210	0x3d591740	0.05300069
211	0x3db9013f	0.09033441
212	0xbe091969	-0.133886
213	0xbe2d7983	-0.16940884
214	0xbe1d79aa	-0.15378442
215	0x3c0b3614	0.00849678
216	0x3e4cf60c	0.20015734
217	0xbe0e945c	-0.13923782
218	0xbc31de71	-0.010856257
219	0xbe36f9fc	-0.17868799
220	0xbcec7e43	-0.0288688
221	0xbe497a95	-0.19675668
222	0x3db886c2	0.09010078
223	0x3e4348fe	0.19070813
224	0xbd22724f	-0.039659794
225	0x3c86afc9	0.016441243
226	0xbd9720a1	-0.0737927
227	0x3da71907	0.081590705
228	0x3e2c42a4	0.16822296
229	0x3d559197	0.0521408
230	0x3da719e9	0.08159239
231	0x3d8b6214	0.06805816
232	0x3e4ac5fe	0.1980209
233	0x3dc2e9c6	0.09517245
234	0xbc8e09e5	-0.017338702
235	0x3de0b375	0.10971729
236	0x3abfe394	0.0014639967
237	0xbe2c8d66	-0.16850814
238	0xbd936e7b	-0.07198807
239	0x3d927eb8	0.07153076
240	0x3e1e5c74	0.15464956
241	0xbe712f74	-0.23553258
242	0xbd383e1a	-0.0449811
243	0x3d6f62e1	0.058443908
244	0xbe140b6a	-0.14457479
245	0xbe777600	-0.24166107
246	0xbe3753f5	-0.17903121
247	0xbdc18c78	-0.094506204
248	0x3e3f5cd3	0.18687753
249	0xbe0b03a6	-0.1357561
250	0x3e28ac09	0.16471876
251	0xbdcadd2f	-0.09905469
252	0xbe2d6856	-0.16934332
253	0x3e403e3f	0.18773745
254	0x3c31060f	0.010804667
255	0xbdd60b91	-0.10451425

inception_module.convs.2.weight f4 [32, 1, 10]
0	0x3c6b0149	0.014343568
1	0x3ce21c88	0.027601495
2	0x3dd423ae	0.10358368
3	0x3e7cc09a	0.24682847
4	0xbe1dfabf	-0.15427683
5	0x3e2702aa	0.1630961
6	0xbcb4d723	-0.022075241
7	0xbe18390b	-0.1486551
8	0xbe6199bf	-0.22031306
9	0x3c69abd0	0.014262155
10	0xbdef1d66	-0.11675529
11	0xbe9192db	-0.28432354
12	0xbd615421	-0.055011872
13	0xbe522286	-0.20520982
14	0x3d10ed08	0.0353823
15	0xbd9055df	-0.070476286
16	0x3d1f442a	0.038883366
17	0x3ebf03d3	0.37307605
18	0xbe22c7cb	-0.15896527
19	0x3dd50f69	0.1040333
20	0x3e0fa554	0.14027911
21	0xbe64e399	-0.22352447
22	0x3ea3361d	0.31877223
23	0xbdb50735	-0.08839265
24	0x3e63448d	0.22194119
25	0x3c9a294c	0.01881852
26	0xbe2487ad	-0.16067381
27	0xbe26e294	-0.1629737
28	0xbe5b3725	-0.21407755
29	0xbded9416	-0.11600511
30	0xbdf120f6	-0.11773865
31	0x3caad08d	0.020851398
32	0xbe355bb2	-0.1771076
33	0xbe8120a7	-0.25220224
34	0x3e0cd8ac	0.13754529
35	0x3dad0921	0.08449007
36	0xbe13969c	-0.14412922
37	0x3bcfc05d	0.00634007
38	0x3c59e377	0.013298861
39	0xbe592710	-0.21206307
40	0xbe39fa8b	-0.18161981
41	0xbd9a0858	-0.07521123
42	0xbd6469f7	-0.05576512
43	0xbe153c77	-0.14573847
44	0x3dfab851	0.12242187
45	0xbd6b8b82	-0.057506092
46	0xbdb1ee66	-0.08688049
47	0xbd1ab311	-0.037768427
48	0xbd7f2d51	-0.062299076
49	0xbe52d26f	-0.20588087
50	0xbd0325d1	-0.032018486
51	0xbec0c193	-0.37647685
52	0x3be1dc23	0.0068926974
53	0xbdc3028c	-0.0952197
54	0x3df5bb88	0.11998659
55	0x3d9b72b7	0.075902395
56	0xbdcace42	-0.09902622
57	0x3cab6422	0.02092177
58	0x3e796c4b	0.24357717
59	0xbe2ccad9	-0.16874255
60	0xbe384fd6	-0.17999205
61	0xbbae0a1d	-0.005311264
62	0xbe0e8f3f	-0.13921832
63	0x3dfa3f48	0.12219101
64	0xbe1ce60c	-0.15322131
65	0xbccff51f	-0.025385438
66	0x3dd3bbbd	0.103385426
67	0x3c5591b9	0.013035231
68	0x3e801e8d	0.25023308
69	0xbde59714	-0.112104565
70	0x3d9cc509	0.07654769
71	0xbe728260	-0.23682547
72	0xbe106a99	-0.14103164
73	0x3dd1cb21	0.10243822
74	0xbd2638d8	-0.040581554
75	0x3e9182f9	0.28420237
76	0xbe617493	-0.22017126
77	0xbe82a538	-0.25516677
78	0xbcafec11	-0.02147487
79	0xbd9da465	-0.076973714
80	0xbe652279	-0.22376432
81	0xbe39e3fd	-0.18153377
82	0x3e7c4551	0.24635817
83	0xbd75c4d5	-0.060002167
84	0x3dd3a73a	0.1033463
85	0xbcb08be8	-0.021551087
86	0xbc9fc424	-0.019502707
87	0x3e81572e	0.25261825
88	0x3e515659	0.20443095
89	0xbd516fe7	-0.05113211
90	0x3e4b589f	0.19858025
91	0x3e72d76b	0.23714988
92	0xbe5d644a	-0.21620288
93	0xbc58160e	-0.013188852
94	0x3e876a98	0.26448512
95	0xbe4228da	-0.18960896
96	0xbe237158	-0.15961206
97	0x3e824792	0.2544523
98	0xbc2a5491	-0.010396139
99	0xbe91fd3d	-0.28513518
100	0x3d3c0420	0.04590237
101	0x3e2b2bfd	0.16715999
102	0xbe0302ff	-0.12794112
103	0x3e318bc2	0.1733847
104	0x3d07f294	0.033190325
105	0x3d9541ee	0.07287966
106	0xbddf7f7a	-0.10912986
107	0xbe72e812	-0.2372134
108	0xbe368bb8	-0.17826736
109	0xbdd0d632	-0.101971045
110	0x3e2bb20f	0.16767143
111	0xbdaab3e7	-0.08335095
112	0xbe5a5baa	-0.2132403
113	0xbdc141e7	-0.09436398
114	0x3cb9cb87	0.022680057
115	0xbee28dc1	-0.44248775
116	0xbcfe9b14	-0.031079806
117	0xbe6e00cb	-0.2324249
118	0x3c0f4cba	0.00874632
119	0x3ba7a998	0.0051166527
120	0xbe310307	-0.17286311
121	0xbdde52d3	-0.10855641
122	0xbe96f577	-0.2948415
123	0x3cc31617	0.023814244
124	0x3d59d151	0.053178135
125	0x3deecc29	0.11660034
126	0xbe1e0b19	-0.15433921
127	0x3d820320	0.06348252
128	0x3e92ffb8	0.28710723
129	0x3ea056c4	0.31316197
130	0x39aab500	0.00032559782
131	0xbe4742e9	-0.19459118
132	0x3dfcaef4	0.12338057
133	0x3e55b544	0.20869929
134	0x3e345af7	0.17612825
135	0x3e1aca52	0.15116242
136	0x3dbed3db	0.09317752
137	0x3e9e54f2	0.30924183
138	0x3c9230fe	0.017845627
139	0x3eb60d38	0.3555696
140	0xbdd25997	-0.10270994
141	0xbe25a8e6	-0.16177711
142	0x3d96cc7a	0.073632196
143	0xbe6443ab	-0.22291438
144	0x3e1951b0	0.14972568
145	0x3e94bff7	0.29052708
146	0xbe6dcfa3	-0.23223738
147	0x3e95f138	0.29285598
148	0xbe11e10b	-0.14246003
149	0x3e854b74	0.2603413
150	0xbe74babe	-0.23899361
151	0xbdfc0845	-0.12306265
152	0xbdccfb46	-0.10008864
153	0xbd07d558	-0.033162445
154	0xbe341cb1	-0.1758907
155	0x3d070bf5	0.032970387
156	0x3e261705	0.16219719
157	0x3e95b1f9	0.29237345
158	0xbc6a3a71	-0.01429616
159	0xbe3755b2	-0.17903784
160	0xbd7eccf6	-0.062207185
161	0x3bccce6f	0.0062501947
162	0xbeb419c6	-0.35175914
163	0x3d8d783b	0.06907698
164	0x3dd5783e	0.10423325
165	0x3db7e742	0.08979656
166	0xbe2c1379	-0.16804303
167	0x3e99d9c6	0.3004896
168	0xbd3480a4	-0.044067994
169	0x3e1b6e2c	0.15178746
170	0x3e1ccba4	0.15312058
171	0xbda6043f	-0.08106279
172	0xbd6ed2aa	-0.058306374
173	0x3da4cec5	0.08047251
174	0xbdf017ae	-0.117232665
175	0x3e81859d	0.2529725
176	0xbed36e4f	-0.41295096
177	0xbc3982a5	-0.011322652
178	0xbd2c8eb4	-0.04212828
179	0xbe8c453a	-0.27396566
180	0x3e164b79	0.14677228
181	0x3e0eab2d	0.13932486
182	0xbe9aaad3	-0.30208454
183	0xbd8c7639	-0.06858487
184	0xbe6f009e	-0.23340079
185	0x3bef3540	0.007300049
186	0x3d11db08	0.035609275
187	0x3d45720a	0.04820446
188	0x3e25d83f	0.16195773
189	0x3e1722b4	0.14759332
190	0x3e89b72d	0.26897565
191	0x3ea2b353	0.3177744
192	0xbd927a48	-0.071522295
193	0xbd3f689e	-0.04673063
194	0x3d3863d1	0.045017067
195	0x3e70761f	0.2348256
196	0x3e0dae36	0.13835987
197	0xbda3d5d8	-0.07999772
198	0x3e55d267	0.20881043
199	0xbd2103b2	-0.039310165
200	0xbc31e5b5	-0.010857989
201	0x3dce87a2	0.10084464
202	0xbcb63b68	-0.022245124
203	0xbdbdd948	-0.09269959
204	0xbe5ee520	-0.21767092
205	0xbeabed37	-0.33579418
206	0xbd8d0653	-0.06885972
207	0xbd5f51fb	-0.054521542
208	0xbe5b859e	-0.2143769
209	0xbe8033a3	-0.25039396
210	0x3e968ca4	0.29404175
211	0x3e3df1d3	0.1854928
212	0xbcaf9ae3	-0.02143616
213	0xbd9451f4	-0.07242194
214	0xbe80b0ec	-0.2513498
215	0x3db3f583	0.08787062
216	0xbe213cdb	-0.15745871
217	0xba84e549	-0.0010139133
218	0x3c4639b0	0.012098715
219	0x3acbe92b	0.001555716
220	0x3e11573f	0.14193438
221	0xbea0ac16	-0.3138129
222	0x3e8d8458	0.27640033
223	0x3dc84b0f	0.09779941
224	0xbd7e9aa5	-0.0621592
225	0x3df6d12c	0.12051615
226	0x3e53630e	0.20643255
227	0xbc80040e	-0.015626933
228	0xbe893652	-0.26799256
229	0xbe4f85ae	-0.20265839
230	0x3e1649ac	0.14676541
231	0x3ccefd0b	0.025267145
232	0x3e02b4dc	0.12764305
233	0x3e9c4908	0.30524468
234	0xbe15e750	-0.1463902
235	0xbe9eec7d	-0.310398
236	0xbe095670	-0.1341188
237	0xbe21e6be	-0.15810677
238	0xbe117132	-0.14203337
239	0x3e86db12	0.26339012
240	0xbd242abc	-0.040079817
241	0x3dff823f	0.12476014
242	0x3e01a9c0	0.1266241
243	0xbe5329e6	-0.20621452
244	0xbe888cd1	-0.26669934
245	0x3be06d6a	0.0068489807
246	0x3e35125d	0.17682786
247	0x3e0076ca	0.12545314
248	0x3c377ec2	0.011199655
249	0xbe951189	-0.2911494
250	0xbe19b92a	-0.1501204
251	0x3e31b838	0.1735543
252	0x3d263158	0.0405744
253	0x3d028509	0.031865153
254	0xbd3f0b37	-0.046641555
255	0xbeaecc4f	-0.3414025

inception_module.hybird_layer.convs.0.weight f4 [1, 1, 2]
0	0xbf800000	-1.0
1	0x3f800000	1.0

inception_module.hybird_layer.convs.1.weight f4 [1, 1, 4]
0	0xbf800000	-1.0
1	0x3f800000	1.0
2	0xbf800000	-1.0
3	0x3f800000	1.0

inception_module.hybird_layer.convs.2.weight f4 [1, 1, 8]
0	0xbf800000	-1.0
1	0x3f800000	1.0
2	0xbf800000	-1.0
3	0x3f800000	1.0
4	0xbf800000	-1.0
5	0x3f800000	1.0
6	0xbf800000	-1.0
7	0x3f800000	1.0

inception_module.hybird_layer.convs.3.weight f4 [1, 1, 16]
0	0xbf800000	-1.0
1	0x3f800000	1.0
2	0xbf800000	-1.0
3	0x3f800000	1.0
4	0xbf800000	-1.0
5	0x3f800000	1.0
6	0xbf800000	-1.0
7	0x3f800000	1.0
8	0xbf800000	-1.0
9	0x3f800000	1.0
10	0xbf800000	-1.0
11	0x3f800000	1.0
12	0xbf800000	-1.0
13	0x3f800000	1.0
14	0xbf800000	-1.0
15	0x3f800000	1.0

inception_module.hybird_layer.convs.4.weight f4 [1, 1, 32]
0	0xbf800000	-1.0
1	0x3f800000	1.0
2	0xbf800000	-1.0
3	0x3f800000	1.0
4	0xbf800000	-1.0
5	0x3f800000	1.0
6	0xbf800000	-1.0
7	0x3f800000	1.0
8	0xbf800000	-1.0
9	0x3f800000	1.0
10	0xbf800000	-1.0
11	0x3f800000	1.0
12	0xbf800000	-1.0
13	0x3f800000	1.0
14	0xbf800000	-1.0
15	0x3f800000	1.0
16	0xbf800000	-1.0
17	0x3f800000	1.0
18	0xbf800000	-1.0
19	0x3f800000	1.0
20	0xbf800000	-1.0
21	0x3f800000	1.0
22	0xbf800000	-1.0
23	0x3f800000	1.0
24	0xbf800000	-1.0
25	0x3f800000	1.0
26	0xbf800000	-1.0
27	0x3f800000	1.0
28	0xbf800000	-1.0
29	0x3f800000	1.0
30	0xbf800000	-1.0
31	0x3f800000	1.0

inception_module.hybird_layer.convs.5.weight f4 [1, 1, 64]
0	0xbf800000	-1.0
1	0x3f800000	1.0
2	0xbf800000	-1.0
3	0x3f800000	1.0
4	0xbf800000	-1.0
5	0x3f800000	1.0
6	0xbf800000	-1.0
7	0x3f800000	1.0
8	0xbf800000	-1.0
9	0x3f800000	1.0
10	0xbf800000	-1.0
11	0x3f800000	1.0
12	0xbf800000	-1.0
13	0x3f800000	1.0
14	0xbf800000	-1.0
15	0x3f800000	1.0
16	0xbf800000	-1.0
17	0x3f800000	1.0
18	0xbf800000	-1.0
19	0x3f800000	1.0
20	0xbf800000	-1.0
21	0x3f800000	1.0
22	0xbf800000	-1.0
23	0x3f800000	1.0
24	0xbf800000	-1.0
25	0x3f800000	1.0
26	0xbf800000	-1.0
27	0x3f800000	1.0
28	0xbf800000	-1.0
29	0x3f800000	1.0
30	0xbf800000	-1.0
31	0x3f800000	1.0
32	0xbf800000	-1.0
33	0x3f800000	1.0
34	0xbf800000	-1.0
35	0x3f800000	1.0
36	0xbf800000	-1.0
37	0x3f800000	1.0
38	0xbf800000	-1.0
39	0x3f800000	1.0
40	0xbf800000	-1.0
41	0x3f800000	1.0
42	0xbf800000	-1.0
43	0x3f800000	1.0
44	0xbf800000	-1.0
45	0x3f800000	1.0
46	0xbf800000	-1.0
47	0x3f800000	1.0
48	0xbf800000	-1.0
49	0x3f800000	1.0
50	0xbf800000	-1.0
51	0x3f800000	1.0
52	0xbf800000	-1.0
53	0x3f800000	1.0
54	0xbf800000	-1.0
55	0x3f800000	1.0
56	0xbf800000	-1.0
57	0x3f800000	1.0
58	0xbf800000	-1.0
59	0x3f800000	1.0
60	0xbf800000	-1.0
61	0x3f800000	1.0
62	0xbf800000	-1.0
63	0x3f800000	1.0

inception_module.hybird_layer.convs.6.weight f4 [1, 1, 2]
0	0x3f800000	1.0
1	0xbf800000	-1.0

inception_module.hybird_layer.convs.7.weight f4 [1, 1, 4]
0	0x3f800000	1.0
1	0xbf800000	-1.0
2	0x3f800000	1.0
3	0xbf800000	-1.0

inception_module.hybird_layer.convs.8.weight f4 [1, 1, 8]
0	0x3f800000	1.0
1	0xbf800000	-1.0
2	0x3f800000	1.0
3	0xbf800000	-1.0
4	0x3f800000	1.0
5	0xbf800000	-1.0
6	0x3f800000	1.0
7	0xbf800000	-1.0

inception_module.hybird_layer.convs.9.weight f4 [1, 1, 16]
0	0x3f800000	1.0
1	0xbf800000	-1.0
2	0x3f800000	1.0
3	0xbf800000	-1.0
4	0x3f800000	1.0
5	0xbf800000	-1.0
6	0x3f800000	1.0
7	0xbf800000	-1.0
8	0x3f800000	1.0
9	0xbf800000	-1.0
10	0x3f800000	1.0
11	0xbf800000	-1.0
12	0x3f800000	1.0
13	0xbf800000	-1.0
14	0x3f800000	1.0
15	0xbf800000	-1.0

inception_module.hybird_layer.convs.10.weight f4 [1, 1, 32]
0	0x3f800000	1.0
1	0xbf800000	-1.0
2	0x3f800000	1.0
3	0xbf800000	-1.0
4	0x3f800000	1.0
5	0xbf800000	-1.0
6	0x3f800000	1.0
7	0xbf800000	-1.0
8	0x3f800000	1.0
9	0xbf800000	-1.0
10	0x3f800000	1.0
11	0xbf800000	-1.0
12	0x3f800000	1.0
13	0xbf800000	-1.0
14	0x3f800000	1.0
15	0xbf800000	-1.0
16	0x3f800000	1.0
17	0xbf800000	-1.0
18	0x3f800000	1.0
19	0xbf800000	-1.0
20	0x3f800000	1.0
21	0xbf800000	-1.0
22	0x3f800000	1.0
23	0xbf800000	-1.0
24	0x3f800000	1.0
25	0xbf800000	-1.0
26	0x3f800000	1.0
27	0xbf800000	-1.0
28	0x3f800000	1.0
29	0xbf800000	-1.0
30	0x3f800000	1.0
31	0xbf800000	-1.0

inception_module.hybird_layer.convs.11.weight f4 [1, 1, 64]
0	0x3f800000	1.0
1	0xbf800000	-1.0
2	0x3f800000	1.0
3	0xbf800000	-1.0
4	0x3f800000	1.0
5	0xbf800000	-1.0
6	0x3f800000	1.0
7	0xbf800000	-1.0
8	0x3f800000	1.0
9	0xbf800000	-1.0
10	0x3f800000	1.0
11	0xbf800000	-1.0
12	0x3f800000	1.0
13	0xbf800000	-1.0
14	0x3f800000	1.0
15	0xbf800000	-1.0
16	0x3f800000	1.0
17	0xbf800000	-1.0
18	0x3f800000	1.0
19	0xbf800000	-1.0
20	0x3f800000	1.0
21	0xbf800000	-1.0
22	0x3f800000	1.0
23	0xbf800000	-1.0
24	0x3f800000	1.0
25	0xbf800000	-1.0
26	0x3f800000	1.0
27	0xbf800000	-1.0
28	0x3f800000	1.0
29	0xbf800000	-1.0
30	0x3f800000	1.0
31	0xbf800000	-1.0
32	0x3f800000	1.0
33	0xbf800000	-1.0
34	0x3f800000	1.0
35	0xbf800000	-1.0
36	0x3f800000	1.0
37	0xbf800000	-1.0
38	0x3f800000	1.0
39	0xbf800000	-1.0
40	0x3f800000	1.0
41	0xbf800000	-1.0
42	0x3f800000	1.0
43	0xbf800000	-1.0
44	0x3f800000	1.0
45	0xbf800000	-1.0
46	0x3f800000	1.0
47	0xbf800000	-1.0
48	0x3f800000	1.0
49	0xbf800000	-1.0
50	0x3f800000	1.0
51	0xbf800000	-1.0
52	0x3f800000	1.0
53	0xbf800000	-1.0
54	0x3f800000	1.0
55	0xbf800000	-1.0
56	0x3f800000	1.0
57	0xbf800000	-1.0
58	0x3f800000	1.0
59	0xbf800000	-1.0
60	0x3f800000	1.0
61	0xbf800000	-1.0
62	0x3f800000	1.0
63	0xbf800000	-1.0

inception_module.hybird_layer.convs.12.weight f4 [1, 1, 6]
0	0xbf800000	-1.0
1	0xbf800000	-1.0
2	0x40000000	2.0
3	0x40000000	2.0
4	0xbf800000	-1.0
5	0xbf800000	-1.0

inception_module.hybird_layer.convs.13.weight f4 [1, 1, 12]
0	0xbe800000	-0.25
1	0xbf800000	-1.0
2	0xbf800000	-1.0
3	0xbe800000	-0.25
4	0x3f000000	0.5
5	0x40000000	2.0
6	0x40000000	2.0
7	0x3f000000	0.5
8	0xbe800000	-0.25
9	0xbf800000	-1.0
10	0xbf800000	-1.0
11	0xbe800000	-0.25

inception_module.hybird_layer.convs.14.weight f4 [1, 1, 24]
0	0xbd800000	-0.0625
1	0xbe800000	-0.25
2	0xbf100000	-0.5625
3	0xbf800000	-1.0
4	0xbf800000	-1.0
5	0xbf100000	-0.5625
6	0xbe800000	-0.25
7	0xbd800000	-0.0625
8	0x3e000000	0.125
9	0x3f000000	0.5
10	0x3f900000	1.125
11	0x40000000	2.0
12	0x40000000	2.0
13	0x3f900000	1.125
14	0x3f000000	0.5
15	0x3e000000	0.125
16	0xbd800000	-0.0625
17	0xbe800000	-0.25
18	0xbf100000	-0.5625
19	0xbf800000	-1.0
20	0xbf800000	-1.0
21	0xbf100000	-0.5625
22	0xbe800000	-0.25
23	0xbd800000	-0.0625

inception_module.hybird_layer.convs.15.weight f4 [1, 1, 48]
0	0xbc800000	-0.015625
1	0xbd800000	-0.0625
2	0xbe100000	-0.140625
3	0xbe800000	-0.25
4	0xbec80000	-0.390625
5	0xbf100000	-0.5625
6	0xbf440000	-0.765625
7	0xbf800000	-1.0
8	0xbf800000	-1.0
9	0xbf440000	-0.765625
10	0xbf100000	-0.5625
11	0xbec80000	-0.390625
12	0xbe800000	-0.25
13	0xbe100000	-0.140625
14	0xbd800000	-0.0625
15	0xbc800000	-0.015625
16	0x3d000000	0.03125
17	0x3e000000	0.125
18	0x3e900000	0.28125
19	0x3f000000	0.5
20	0x3f480000	0.78125
21	0x3f900000	1.125
22	0x3fc40000	1.53125
23	0x40000000	2.0
24	0x40000000	2.0
25	0x3fc40000	1.53125
26	0x3f900000	1.125
27	0x3f480000	0.78125
28	0x3f000000	0.5
29	0x3e900000	0.28125
30	0x3e000000	0.125
31	0x3d000000	0.03125
32	0xbc800000	-0.015625
33	0xbd800000	-0.0625
34	0xbe100000	-0.140625
35	0xbe800000	-0.25
36	0xbec80000	-0.390625
37	0xbf100000	-0.5625
38	0xbf440000	-0.765625
39	0xbf800000	-1.0
40	0xbf800000	-1.0
41	0xbf440000	-0.765625
42	0xbf100000	-0.5625
43	0xbec80000	-0.390625
44	0xbe800000	-0.25
45	0xbe100000	-0.140625
46	0xbd800000	-0.0625
47	0xbc800000	-0.015625

inception_module.hybird_layer.convs.16.weight f4 [1, 1, 96]
0	0xbb800000	-0.00390625
1	0xbc800000	-0.015625
2	0xbd100000	-0.03515625
3	0xbd800000	-0.0625
4	0xbdc80000	-0.09765625
5	0xbe100000	-0.140625
6	0xbe440000	-0.19140625
7	0xbe800000	-0.25
8	0xbea20000	-0.31640625
9	0xbec80000	-0.390625
10	0xbef20000	-0.47265625
11	0xbf100000	-0.5625
12	0xbf290000	-0.66015625
13	0xbf440000	-0.765625
14	0xbf610000	-0.87890625
15	0xbf800000	-1.0
16	0xbf800000	-1.0
17	0xbf610000	-0.87890625
18	0xbf440000	-0.765625
19	0xbf290000	-0.66015625
20	0xbf100000	-0.5625
21	0xbef20000	-0.47265625
22	0xbec80000	-0.390625
23	0xbea20000	-0.31640625
24	0xbe800000	-0.25
25	0xbe440000	-0.19140625
26	0xbe100000	-0.140625
27	0xbdc80000	-0.09765625
28	0xbd800000	-0.0625
29	0xbd100000	-0.03515625
30	0xbc800000	-0.015625
31	0xbb800000	-0.00390625
32	0x3c000000	0.0078125
33	0x3d000000	0.03125
34	0x3d900000	0.0703125
35	0x3e000000	0.125
36	0x3e480000	0.1953125
37	0x3e900000	0.28125
38	0x3ec40000	0.3828125
39	0x3f000000	0.5
40	0x3f220000	0.6328125
41	0x3f480000	0.78125
42	0x3f720000	0.9453125
43	0x3f900000	1.125
44	0x3fa90000	1.3203125
45	0x3fc40000	1.53125
46	0x3fe10000	1.7578125
47	0x40000000	2.0
48	0x40000000	2.0
49	0x3fe10000	1.7578125
50	0x3fc40000	1.53125
51	0x3fa90000	1.3203125
52	0x3f900000	1.125
53	0x3f720000	0.9453125
54	0x3f480000	0.78125
55	0x3f220000	0.6328125
56	0x3f000000	0.5
57	0x3ec40000	0.3828125
58	0x3e900000	0.28125
59	0x3e480000	0.1953125
60	0x3e000000	0.125
61	0x3d900000	0.0703125
62	0x3d000000	0.03125
63	0x3c000000	0.0078125
64	0xbb800000	-0.00390625
65	0xbc800000	-0.015625
66	0xbd100000	-0.03515625
67	0xbd800000	-0.0625
68	0xbdc80000	-0.09765625
69	0xbe100000	-0.140625
70	0xbe440000	-0.19140625
71	0xbe800000	-0.25
72	0xbea20000	-0.31640625
73	0xbec80000	-0.390625
74	0xbef20000	-0.47265625
75	0xbf100000	-0.5625
76	0xbf290000	-0.66015625
77	0xbf440000	-0.765625
78	0xbf610000	-0.87890625
79	0xbf800000	-1.0
80	0xbf800000	-1.0
81	0xbf610000	-0.87890625
82	0xbf440000	-0.765625
83	0xbf290000	-0.66015625
84	0xbf100000	-0.5625
85	0xbef20000	-0.47265625
86	0xbec80000	-0.390625
87	0xbea20000	-0.31640625
88	0xbe800000	-0.25
89	0xbe440000	-0.19140625
90	0xbe100000	-0.140625
91	0xbdc80000	-0.09765625
92	0xbd800000	-0.0625
93	0xbd100000	-0.03515625
94	0xbc800000	-0.015625
95	0xbb800000	-0.00390625

inception_module.bn.weight f4 [113]
0	0x3f835b19	1.0262176
1	0x3f8c81f4	1.0977159
2	0x3f977775	1.183333
3	0x3f7e8cdf	0.994337
4	0x3f8c9923	1.0984234
5	0x3f80d4ce	1.0064943
6	0x3f7b2543	0.9810373
7	0x3f82372e	1.017309
8	0x3f803a73	1.0017837
9	0x3f827ff5	1.0195299
10	0x3f86ddef	1.0536479
11	0x3f815621	1.010441
12	0x3f7accf9	0.97969013
13	0x3f869e1a	1.0516999
14	0x3f81167e	1.0084989
15	0x3f87c343	1.0606464
16	0x3f832f51	1.0248815
17	0x3f78e5e2	0.97225773
18	0x3f7b9e2f	0.98288244
19	0x3f8313a4	1.0240369
20	0x3f81e268	1.0147219
21	0x3f80db25	1.0066878
22	0x3f7d79d4	0.9901402
23	0x3f87dc22	1.0614054
24	0x3f7c1383	0.9846727
25	0x3f83236d	1.0245186
26	0x3f81ab87	1.0130471
27	0x3f80085b	1.000255
28	0x3f9131cb	1.1343321
29	0x3f7fb04a	0.9987837
30	0x3f85ba84	1.0447545
31	0x3f85028d	1.0391403
32	0x3f76ddae	0.96432006
33	0x3f82d11e	1.0220068
34	0x3f81ec39	1.0150214
35	0x3f808765	1.0041319
36	0x3f82eb87	1.0228127
37	0x3f7d33fb	0.9890744
38	0x3f7ba06e	0.9829167
39	0x3f814a0f	1.0100726
40	0x3f800eb5	1.0004488
41	0x3f852c1d	1.0404087
42	0x3f77983b	0.9671666
43	0x3f80bc2f	1.0057429
44	0x3f7f588c	0.99744487
45	0x3f86ed25	1.0541121
46	0x3f7a271b	0.9771592
47	0x3f7215e8	0.94564676
48	0x3f7e6e6e	0.9938725
49	0x3f8064ca	1.0030758
50	0x3f7f38bb	0.9969594
51	0x3f83808a	1.0273602
52	0x3f790236	0.97269
53	0x3f7df34a	0.99199355
54	0x3f82aefe	1.0209653
55	0x3f7a0fa4	0.97680116
56	0x3f7c5ef7	0.98582405
57	0x3f75a622	0.95956624
58	0x3f816f71	1.0112134
59	0x3f7a5bfd	0.9779661
60	0x3f7d9a2f	0.9906339
61	0x3f8388be	1.0276105
62	0x3f8d68ff	1.1047667
63	0x3f7e4495	0.993234
64	0x3f76c948	0.9640088
65	0x3f8479fa	1.0349724
66	0x3f7ef9ea	0.9960009
67	0x3f78abdd	0.9713724
68	0x3f7bd43e	0.9837073
69	0x3f7ba41d	0.9829729
70	0x3f7df3d1	0.9920016
71	0x3f7ca386	0.98687017
72	0x3f812e92	1.0092337
73	0x3f78ab45	0.97136337
74	0x3f7f7f50	0.9980364
75	0x3f8072da	1.003505
76	0x3f7c46ea	0.98545706
77	0x3f7e5905	0.99354583
78	0x3f79f76d	0.97643167
79	0x3f80ea41	1.0071489
80	0x3f7c971f	0.9866809
81	0x3f7e5b19	0.99357754
82	0x3f750271	0.9570685
83	0x3f79dc55	0.97601825
84	0x3f7b0ba5	0.98064643
85	0x3f81a0ce	1.0127199
86	0x3f819050	1.0122166
87	0x3f7f9c09	0.99847466
88	0x3f764091	0.9619227
89	0x3f735c60	0.9506283
90	0x3f7309f5	0.9493707
91	0x3f7d8b80	0.99040985
92	0x3f784209	0.9697576
93	0x3f7e735b	0.9939477
94	0x3f78d2fe	0.9719695
95	0x3f767902	0.96278393
96	0x3f6be35b	0.9214379
97	0x3f712ca5	0.9420875
98	0x3f749751	0.9554339
99	0x3f6f8f62	0.9357816
100	0x3f8087d2	1.0041449
101	0x3f7f5c8f	0.9975061
102	0x3f73c015	0.9521497
103	0x3f740e69	0.9533449
104	0x3f6ea631	0.9322234
105	0x3f7e1748	0.99254274
106	0x3f76881a	0.96301425
107	0x3f8161b1	1.0107938
108	0x3f7720cf	0.96534437
109	0x3f7a8b7d	0.9786909
110	0x3f821109	1.0161449
111	0x3f83bd35	1.0292116
112	0x3f8323c7	1.0245293

inception_module.bn.bias f4 [113]
0	0x3deb8260	0.114994764
1	0x3e1e4abe	0.154582
2	0x3dfeade7	0.12435513
3	0x3d0726c1	0.032995943
4	0xbe344c58	-0.17607248
5	0xbdac5cbf	-0.084161274
6	0xbe9b1a17	-0.30293342
7	0xbae2680d	-0.0017273441
8	0xbd2d6b66	-0.04233875
9	0xbe950c99	-0.29111174
10	0xbd37359c	-0.04472886
11	0xbe39bb42	-0.1813784
12	0xbe77d630	-0.242028
13	0xbd80d14c	-0.0628992
14	0xbd57bcba	-0.052670218
15	0xbe636f52	-0.22210434
16	0xbd371117	-0.044694033
17	0x3c10a84f	0.00882919
18	0xbe342a79	-0.17594327
19	0x3c9ee24c	0.019395016
20	0x3e0426d0	0.12905431
21	0x3e00a056	0.12561163
22	0xbdef0fde	-0.11672948
23	0xbd1036c6	-0.035208486
24	0xbd8d1400	-0.0688858
25	0x3e197a52	0.14988068
26	0x3d261de5	0.040555853
27	0xbe208084	-0.15674025
28	0xbdb462ac	-0.08807883
29	0xbd57b94d	-0.05266695
30	0x3db5db9a	0.08879776
31	0x3dab4325	0.08362416
32	0xbb51fc91	-0.003204141
33	0xbaebbfa8	-0.0017986195
34	0x3d925182	0.07144453
35	0x3bb2e5b8	0.0054595135
36	0xbe3e11e9	-0.1856152
37	0x3e434959	0.19070949
38	0x3d82bce4	0.06383684
39	0x3c958125	0.018250057
40	0x3e47fd86	0.19530305
41	0xbd87fc23	-0.06639888
42	0x3dc36a8d	0.09541807
43	0x3e02ec01	0.12785341
44	0xbdc8ae73	-0.097988985
45	0xbda0ebfd	-0.07857511
46	0x3e3d10a9	0.18463387
47	0x3e185c91	0.14879061
48	0x3d5343ed	0.05157845
49	0x3d9a9b16	0.075491115
50	0xbdb591cb	-0.088656984
51	0xbe914288	-0.28371072
52	0xbd8e429c	-0.069462985
53	0xbe247f58	-0.16064203
54	0x3e3f74d1	0.18696906
55	0xbc993838	-0.018703565
56	0xbdaae0ab	-0.08343633
57	0x3ddef081	0.10885716
58	0xbd151526	-0.03639712
59	0xbd2c12a3	-0.04200996
60	0x3b751d41	0.003740147
61	0xbd2c1216	-0.042009436
62	0x3d39378f	0.045219
63	0x3d5653bc	0.05232595
64	0xbcc75822	-0.024334017
65	0xbdbee061	-0.09320141
66	0xbd8275c8	-0.06370121
67	0xbd05233a	-0.032504298
68	0x3e126c0a	0.14299026
69	0xbcaf56e0	-0.02140373
70	0xbdc8dc7c	-0.09807679
71	0x3d834af0	0.064107776
72	0x3d0a9060	0.033829093
73	0x3e6a119b	0.22858278
74	0xbe1ba075	-0.15197928
75	0xbe23a9da	-0.15982762
76	0x3c431ae5	0.011908268
77	0x3dea8174	0.114504725
78	0xbdf8a21c	-0.12140295
79	0xbd98150d	-0.0742589
80	0x3d8c52fc	0.068517655
81	0xbe1a6271	-0.15076615
82	0x3e2728cd	0.16324158
83	0xbe08543a	-0.1331338
84	0xbde7ad34	-0.11312333
85	0x3e1e3905	0.15451439
86	0xbef0794e	-0.46967548
87	0xbdbab662	-0.09116818
88	0x3c7b3a91	0.015333788
89	0x3e358ab6	0.17728695
90	0xbda2ede4	-0.0795553
91	0xbbe8c32a	-0.0071033435
92	0xbdac492b	-0.08412393
93	0xbde82f17	-0.11337107
94	0x3c7a504b	0.015277932
95	0x3d4a991c	0.049462423
96	0x3dedcd62	0.11611439
97	0xbe8e76af	-0.27824923
98	0xbe142b50	-0.14469647
99	0xbde10e01	-0.10988999
100	0xbe8aa4ee	-0.27078956
101	0x3d45ea5e	0.048319213
102	0x3df1f904	0.11815074
103	0xbea717fc	-0.32635486
104	0xbe12fccf	-0.14354251
105	0x3d068550	0.03284198
106	0x3d910801	0.07081605
107	0x3e5edb89	0.21763434
108	0x3ea3fb2e	0.32027572
109	0x3e28df03	0.16491322
110	0x3df304f4	0.11866179
111	0x3d8739c9	0.066028185
112	0x3e49af3f	0.19695757

inception_module.bn.running_mean f4 [113]
0	0xb8c21d98	-9.256153e-05
1	0x3897d16c	7.239249e-05
2	0x3847746f	4.7553734e-05
3	0x38b8756c	8.795675e-05
4	0x385b6cc4	5.2314965e-05
5	0xb7b79140	-2.1882937e-05
6	0x386a4ba4	5.5860393e-05
7	0xb8d431ce	-0.000101182246
8	0x38c396b0	9.326392e-05
9	0xb8e60203	-0.00010967629
10	0xb8cc63b8	-9.746052e-05
11	0x384e0938	4.9122813e-05
12	0xb80d26bf	-3.3653105e-05
13	0x3830b318	4.2128464e-05
14	0x38140a5c	3.5295598e-05
15	0x379d4b40	1.87509e-05
16	0x38b205c1	8.488773e-05
17	0x38901c70	6.871752e-05
18	0x37b153d0	2.1139072e-05
19	0xb89d0bf6	-7.488571e-05
20	0x38c14f44	9.2177215e-05
21	0x3857cbcc	5.1449795e-05
22	0xb80abec0	-3.3079414e-05
23	0x3890409a	6.878488e-05
24	0xb85aa368	-5.2127434e-05
25	0x38508f38	4.9724447e-05
26	0xb9008df8	-0.00012259919
27	0x3894a73a	7.088338e-05
28	0xb88a73ba	-6.6019085e-05
29	0xb7682b00	-1.3838289e-05
30	0xb8a6c398	-7.951929e-05
31	0x384febb8	4.9572176e-05
32	0xb8388730	-4.399492e-05
33	0x37fd88f0	3.0223717e-05
34	0xb8c69aa4	-9.47018e-05
35	0x38a1e0d4	7.718956e-05
36	0x37ea4958	2.7929127e-05
37	0x38c7ed20	9.5332274e-05
38	0x38deb4b0	0.000106194406
39	0x38e5e550	0.00010962284
40	0x3866147c	5.485535e-05
41	0x3838e460	4.408171e-05
42	0x3823abc0	3.9022183e-05
43	0xb8ce7aa0	-9.845686e-05
44	0x3892af84	6.994515e-05
45	0xb7fced6f	-3.0151305e-05
46	0x37c29260	2.3194763e-05
47	0xb87be898	-6.0059683e-05
48	0x37106220	8.605915e-06
49	0x37d882a0	2.5810034e-05
50	0x382868a0	4.015176e-05
51	0xb75935a0	-1.29466935e-05
52	0xb8592228	-5.1768642e-05
53	0xb7f6ffc0	-2.9444578e-05
54	0xb78a7338	-1.6504535e-05
55	0x383e34b8	4.534863e-05
56	0x382473ee	3.9208615e-05
57	0xb7b92ce8	-2.207463e-05
58	0x38a3b8a5	7.8068384e-05
59	0x35ddf240	1.6536287e-06
60	0xb9007e44	-0.00012254069
61	0xb80b52e4	-3.321738e-05
62	0x37a0f7a0	1.9188796e-05
63	0xb8451510	-4.6988076e-05
64	0xb7d4b0ad	-2.535464e-05
65	0x3860d520	5.360425e-05
66	0x36efc720	7.1459363e-06
67	0x386da220	5.6656194e-05
68	0x38908d00	6.8927184e-05
69	0x37810938	1.5382291e-05
70	0x37685cb8	1.3849865e-05
71	0x38290350	4.0295825e-05
72	0xb81a6a48	-3.6815443e-05
73	0xb79d446e	-1.8747724e-05
74	0x36d77020	6.4205524e-06
75	0x3905f7f0	0.00012776232
76	0x37244298	9.790667e-06
77	0xb91146c0	-0.00013854634
78	0xb7d344d8	-2.5185218e-05
79	0x38242b30	3.914087e-05
80	0xb6c06200	-5.7334546e-06
81	0x381d3ed8	3.7490245e-05
82	0x37e3a7e6	2.7138693e-05
83	0xb8e6a6e0	-0.000109983375
84	0x39119ba0	0.00013886252
85	0x373c7929	1.1233883e-05
86	0xb80a144a	-3.292066e-05
87	0x37f815fc	2.9574141e-05
88	0x37ba7aa0	2.223003e-05
89	0x38480acc	4.769377e-05
90	0xb82382b0	-3.898394e-05
91	0x3860e6f4	5.3620854e-05
92	0xb7e5a478	-2.7375514e-05
93	0x38be4474	9.0726564e-05
94	0xb93b6088	-0.0001786967
95	0xb80491ce	-3.1607044e-05
96	0x3cd6ecfc	0.02623605
97	0x3d31caaf	0.043406185
98	0x3d9449b5	0.07240621
99	0x3df0281b	0.117263995
100	0x3e37f45c	0.1796431
101	0x3e85d386	0.26137942
102	0x3cd6ecfc	0.02623605
103	0x3d31c0bf	0.043396708
104	0x3d943eba	0.07238527
105	0x3df019d0	0.11723673
106	0x3e37f14a	0.17963138
107	0x3e85c810	0.26129198
108	0x3d918315	0.0710508
109	0x3e398a56	0.18119177
110	0x3f08412e	0.53224456
111	0x3fe190b6	1.7622287
112	0x40b365f0	5.6061935

inception_module.bn.running_var f4 [113]
0	0x3f2ed139	0.68288
1	0x3eacd24b	0.3375419
2	0x3e15cdfa	0.14629355
3	0x3ea6242c	0.32449472
4	0x3e27a11b	0.1637005
5	0x3f9d0280	1.2266388
6	0x3d499d82	0.049222477
7	0x3e0a7e09	0.13524641
8	0x3e0502a0	0.12989283
9	0x3e6a9d86	0.22911653
10	0x3db24650	0.08704817
11	0x3ede2e43	0.4339467
12	0x3e24d3d4	0.16096431
13	0x3cf85f4a	0.030318875
14	0x3f29d907	0.6634678
15	0x3f8dc3bc	1.1075358
16	0x3dee5516	0.116373226
17	0x3e83ab48	0.25716615
18	0x3f62780d	0.8846443
19	0x3d9ed503	0.077554725
20	0x3f204548	0.62605715
21	0x3e3bce4f	0.18340419
22	0x3d3d0d49	0.046155248
23	0x3e52b87a	0.20578185
24	0x3d010e2d	0.03150766
25	0x3d7f1420	0.062275052
26	0x3d91660b	0.07099541
27	0x3d0c4330	0.034243762
28	0x3dc522c6	0.09625773
29	0x3e05d965	0.1307121
30	0x3dadeb6b	0.08492168
31	0x3ef9f8fd	0.48822775
32	0x3f803700	1.0016785
33	0x3d41161a	0.04714022
34	0x3df65ae1	0.120290525
35	0x3d8e837d	0.06958673
36	0x3e8661ff	0.2624664
37	0x3fdebc56	1.7401226
38	0x3fc1985d	1.5124623
39	0x3e398a19	0.18119086
40	0x3c97b040	0.01851666
41	0x3e1e0a11	0.15433528
42	0x3fac4bef	1.3460673
43	0x3ecdee71	0.4022098
44	0x3e5f317c	0.2179622
45	0x3cb6a82f	0.022296993
46	0x3e1404db	0.14454977
47	0x3dd14627	0.102184586
48	0x3d73d010	0.059524596
49	0x3d5dee19	0.054182146
50	0x3e196084	0.14978224
51	0x3e5a3e1f	0.2131276
52	0x3cef9c81	0.029249432
53	0x3f0cc5ba	0.54989207
54	0x3c689458	0.014195524
55	0x3db18fb2	0.08669986
56	0x3d14fd08	0.036374122
57	0x3d234c4d	0.039867688
58	0x3da50719	0.080579944
59	0x3d1441d1	0.03619558
60	0x3ed8f3c9	0.42373493
61	0x3e2375da	0.15962926
62	0x3d448b51	0.047984425
63	0x3ed3dea6	0.41380805
64	0x3c38049e	0.01123157
65	0x3e0d2f25	0.13787515
66	0x3db35fcc	0.08758506
67	0x3ec727d9	0.3889759
68	0x3f15505d	0.5832575
69	0x3db94dfc	0.090480775
70	0x3cb784e7	0.02240224
71	0x3e887900	0.26654816
72	0x3d9ece49	0.077541895
73	0x3cac9818	0.021068618
74	0x3dac96f0	0.084272265
75	0x3f47a331	0.77983385
76	0x3d85458b	0.06507405
77	0x3fbf82ce	1.4961793
78	0x3d653fb5	0.05596896
79	0x3e18f34c	0.1493656
80	0x3caf4df3	0.021399474
81	0x3e84dd29	0.25949982
82	0x3c649349	0.013951131
83	0x3f69543d	0.9114416
84	0x3fa971de	1.3237875
85	0x3c867fd3	0.016418373
86	0x3c4550d0	0.012043193
87	0x3c62bc78	0.01383888
88	0x3d5accc3	0.053417932
89	0x3cb34488	0.021883264
90	0x3dd1adc8	0.10238224
91	0x3d38dcf0	0.045132577
92	0x3d8746d1	0.06605304
93	0x3e6592ce	0.22419283
94	0x3fe07fc1	1.7538987
95	0x3c210062	0.009826751
96	0x3b78f77c	0.003798931
97	0x3bf55c1b	0.0074877865
98	0x3c9b568c	0.018962167
99	0x3d418cb5	0.04725333
100	0x3dd61884	0.10453895
101	0x3e380bba	0.17973223
102	0x3b837912	0.0040122354
103	0x3c02ae21	0.007976086
104	0x3ca77079	0.020439373
105	0x3d4a40a0	0.049378037
106	0x3dcaa70e	0.098951444
107	0x3e31f2d8	0.17377794
108	0x3d0664ba	0.032810904
109	0x3e29effd	0.16595455
110	0x3f959b78	1.168807
111	0x412b7a93	10.717425
112	0x42ad07c4	86.51517

fcn_modules.0.dwsc.depthwise.weight f4 [113, 1, 20]
0	0xbd19f45b	-0.03758655
1	0x3de8f791	0.113753445
2	0x3e3e183f	0.18563937
3	0xbe65fba1	-0.2245927
4	0x3e1da0f3	0.15393429
5	0x3e4eff1b	0.20214503
6	0xbe0a976b	-0.13534324
7	0x3e4845c0	0.19557858
8	0xbdec33d7	-0.11533325
9	0x3c769bf6	0.015051832
10	0xbab9857c	-0.0014154161
11	0xbe0e70e2	-0.13910249
12	0xbdfddacc	-0.12395248
13	0x3d18462c	0.037176296
14	0xbe5ff9c2	-0.21872619
15	0xbe5a845c	-0.21339554
16	0xbdbb5910	-0.09147847
17	0xbdf80615	-0.12110535
18	0xbd6d8b29	-0.05799404
19	0xbd0312a7	-0.03200021
20	0x3d7e1141	0.062028173
21	0x3e2b8d36	0.16753086
22	0xbd8cbcb7	-0.06871932
23	0x3e12e83a	0.143464
24	0xbd5d87db	-0.05408464
25	0x3e4fe0d5	0.2030061
26	0xbd78d725	-0.060752053
27	0xbe11df77	-0.14245401
28	0x3e023c5e	0.12718341
29	0xbd8a2d06	-0.06746869
30	0xbe6e3791	-0.23263384
31	0x3e2e3ff5	0.17016585
32	0xbe3ef790	-0.18649125
33	0x3e201d2f	0.15636133
34	0x3b9efc8a	0.0048518823
35	0xbe020918	-0.12698781
36	0xbe06a548	-0.13148987
37	0x3d123927	0.035699036
38	0x3b252737	0.0025200376
39	0xbe06fe23	-0.13182883
40	0x3dfe5d0d	0.12420092
41	0x3d5c9865	0.053856272
42	0xbe59ee02	-0.21282199
43	0x3e53fc9f	0.20701836
44	0xbe52e297	-0.2059425
45	0x3db8a312	0.09015478
46	0x3de2aec8	0.11068493
47	0xbe2031fa	-0.15644065
48	0x3d16cb71	0.03681511
49	0xbe4f8421	-0.20265247
50	0xbd90ca79	-0.070698686
51	0xbe0437e6	-0.12911949
52	0xbcb6d0a5	-0.022316286
53	0xbe34f7a2	-0.1767259
54	0x3e1beaff	0.15226363
55	0xbc8b4114	-0.016998805
56	0x3ce2a530	0.027666658
57	0x3e179140	0.14801502
58	0x3bd89fa6	0.0066108285
59	0x3e9918ac	0.29901636
60	0x3e066279	0.13123502
61	0xbcda4a24	-0.026646681
62	0xbd985c04	-0.074394256
63	0xbded4bc5	-0.115867175
64	0x3e23044a	0.15919605
65	0xbe13f02d	-0.14447089
66	0xbcf9d7c1	-0.030498387
67	0xbe392b44	-0.18082911
68	0xbe02d300	-0.12775803
69	0xbe690637	-0.22756277
70	0xbe24ad86	-0.16081819
71	0x3dfdd6bc	0.12394473
72	0xbe316cff	-0.17326735
73	0x3e397968	0.18112719
74	0x3e62e119	0.2215618
75	0x3db50efc	0.08840749
76	0xbe39e83e	-0.18155
77	0xbe0acd64	-0.13554913
78	0xbd4c6a3c	-0.049906
79	0xbca12d1d	-0.019674832
80	0xbe289132	-0.16461638
81	0xbe448d36	-0.19194493
82	0x3d37e7b3	0.0448987
83	0x3d3e9e08	0.04653743
84	0xbe02bccd	-0.12767334
85	0x3e70a374	0.23499852
86	0xbde7fe24	-0.1132777
87	0x3c77da49	0.015127727
88	0x3d26e738	0.04074785
89	0xbe38d73e	-0.18050858
90	0xbe12ab2f	-0.14323114
91	0x3e704839	0.23465051
92	0x3e2d7724	0.1693998
93	0xbddf60a9	-0.10907108
94	0x3e88886d	0.26666585
95	0x3dccd9d2	0.100024834
96	0xbe160e0b	-0.14653794
97	0xbda135ac	-0.07871565
98	0x3e61ee9e	0.22063681
99	0x3e0e6f96	0.13909754
100	0xba5d8361	-0.0008450058
101	0xbe5e705e	-0.21722552
102	0x3be9036d	0.007111004
103	0xbdcbf60c	-0.09959039
104	0xbce2c608	-0.02768232
105	0x3d5530ed	0.052048612
106	0x3e39ee75	0.1815737
107	0xbbf97ece	-0.0076139932
108	0xbe657481	-0.22407724
109	0xbe15428d	-0.14576168
110	0x3e2220cb	0.15832822
111	0x3e497a51	0.19675566
112	0xbe338aca	-0.17533413
113	0x3defdf5f	0.117125265
114	0xbd49bdbb	-0.049253207
115	0x3db63eb2	0.08898677
116	0xbdcbe138	-0.099550664
117	0x3d3d1bad	0.04616897
118	0x3dcff51e	0.10154174
119	0xbe4a080e	-0.19729635
120	0xbde3c872	-0.11122216
121	0xbdbdbb9d	-0.092643
122	0xbe387eb9	-0.18017091
123	0x3d48e049	0.04904202
124	0x3dd7ac96	0.10530965
125	0xbd49a33b	-0.049227934
126	0x3d029f05	0.031889934
127	0xbe8136c2	-0.2523709
128	0xbdaaf3ce	-0.08347283
129	0x3c5fce62	0.013660045
130	0xbd6a9ae4	-0.05727662
131	0xbe73c6b2	-0.23806265
132	0x3dcb4b0d	0.09926424
133	0xbe00a3e2	-0.12562516
134	0xbb239564	-0.002496087
135	0xbe376787	-0.17910586
136	0x3c9287de	0.017887052
137	0x3da23968	0.079211056
138	0x3d2e9005	0.042617816
139	0xbdbb9ea0	-0.09161115
140	0x3e62b298	0.2213844
141	0x3e223d66	0.15843734
142	0x3e182043	0.14856057
143	0xbcf6cb80	-0.030126333
144	0xbe07a19e	-0.13245246
145	0xbd82084e	-0.0634924
146	0xbdcac436	-0.099007055
147	0x3e5d4f7c	0.21612352
148	0xbcd07e86	-0.025450956
149	0xbe44beef	-0.1921346
150	0xbe44729a	-0.19184342
151	0xbdf7878b	-0.120864
152	0xbd8b6475	-0.0680627
153	0xbe18ea26	-0.1493307
154	0xbdef9611	-0.11698545
155	0xbe6527e3	-0.22378497
156	0x3ca44559	0.020052599
157	0xbe40c27b	-0.18824188
158	0xbe0e39cb	-0.13889234
159	0xbd9d3338	-0.07675785
160	0xbe29f095	-0.16595681
161	0x3dc0a8ed	0.0940722
162	0x3deadae6	0.11467533
163	0xbcbe62b6	-0.023240428
164	0xbd24198a	-0.04006342
165	0xbd4869ba	-0.048928954
166	0xbd9cc8bc	-0.076554745
167	0xbdb4891f	-0.08815216
168	0x3e1b26b6	0.15151486
169	0x3cd382e8	0.025819257
170	0xbe447c67	-0.1918808
171	0x3d4a0151	0.04931766
172	0xbd7dd4cb	-0.061970513
173	0xbdbe04d1	-0.092782624
174	0x3d74885d	0.05970036
175	0x3d707f5e	0.058715217
176	0xbcdd5e25	-0.02702243
177	0xbd0236f8	-0.031790704
178	0xbd55e68d	-0.052221823
179	0xbe29d1fc	-0.16584009
180	0x3de08fd4	0.10964933
181	0x3d6148ff	0.055001255
182	0x3dc5200e	0.096252546
183	0xbe0de4a8	-0.13856757
184	0x3e09759d	0.13423772
185	0xbd84cb19	-0.0648405
186	0x3e024e77	0.12725244
187	0x3c5de156	0.013542494
188	0x3e83b07c	0.25720584
189	0x3cf6373a	0.030055631
190	0x3cc92c67	0.024557305
191	0xbe0068b8	-0.12539947
192	0x3de70a99	0.11281318
193	0x3ccd8643	0.025088435
194	0x3d4e4bd7	0.050365295
195	0x3e5e6659	0.2171873
196	0xbd947d43	-0.07250454
197	0xbd8ba709	-0.06818969
198	0xbd8ff82d	-0.07029758
199	0xbe55ae60	-0.208673
200	0x3e09ec38	0.13469017
201	0xbc057725	-0.008146082
202	0xbdd67437	-0.10471385
203	0xbe32807b	-0.17431824
204	0x3e7b95e0	0.24568892
205	0x3e3da6b7	0.18520628
206	0xbd9b6980	-0.07588482
207	0x3c793bc6	0.015212005
208	0x3dc8cf3e	0.09805153
209	0x3df7a880	0.12092686
210	0x3e319a54	0.17344028
211	0xbdc3ef2b	-0.09567102
212	0xbafa6cda	-0.0019105927
213	0x3e785fc7	0.24255286
214	0x3b4b1372	0.0030986932
215	0xbcfd9217	-0.03095345
216	0x3ca82a3a	0.020527948
217	0x3e1be7a7	0.15225087
218	0x3e648ac0	0.22318554
219	0xbd563d29	-0.05230442
220	0xbdeab02d	-0.11459384
221	0xbe0f4cb8	-0.1399411
222	0xbbc95a02	-0.006144763
223	0xbdf4160e	-0.11918269
224	0x3d9575fd	0.07297895
225	0x3e4cf758	0.20016229
226	0x3e32ecba	0.17473117
227	0xbd702dd1	-0.058637444
228	0xbe1c2c48	-0.15251267
229	0xbd162c43	-0.036663305
230	0xbe4963c0	-0.19666958
231	0xbe06ff65	-0.13183363
232	0xbdfa93a5	-0.12235192
233	0x3ca91b66	0.020642947
234	0x3d091e7e	0.033476345
235	0x3d86e240	0.065861225
236	0xbe56ef5c	-0.20989746
237	0xbe4ab05f	-0.19793843
238	0xbe521544	-0.20515925
239	0xbdad2d13	-0.08455863
240	0xbe1dec52	-0.1542218
241	0xbe5a2122	-0.21301702
242	0xbdc5e998	-0.09663695
243	0x3deb0baf	0.11476838
244	0x3e1abfdc	0.15112251
245	0xbd57e777	-0.052710976
246	0x3c4c88b5	0.012483765
247	0x3e4c330b	0.19941346
248	0x3db70fd8	0.08938569
249	0xbe2243b0	-0.15846133
250	0x3dd99b7a	0.10625358
251	0xbe404537	-0.18776403
252	0x3e1d16fa	0.15340796
253	0x3e210c98	0.1572746
254	0xbd874d00	-0.066064835
255	0x3e44662c	0.191796
